model.pth (torch, 143409 bytes, 7 tensors)

lstm.weight_ih_l0 f4 [240, 4]
000000 4c 1c f6 bc 94 8d ac bd 20 7d a5 3c 8c b1 2a 3d
       -0.03004279 -0.084254414 0.020201266 0.04167323
000010 d6 26 d3 3d 64 49 69 3d 84 35 04 3d 12 45 58 bd
       0.10310142 0.056954756 0.0322776 -0.052800246
000020 9b 7d 2c 3e b0 65 3d 3c c3 83 b5 bd 22 e9 de bd
       0.1684479 0.011559889 -0.08863022 -0.1088431
000030 f3 7a b7 bc 60 aa d4 3d 47 2b 24 3d 5d eb 10 3e
       -0.022397494 0.10384059 0.040080335 0.14152284
000040 40 d2 aa 3c 96 76 ea 3d 00 20 3d 3b 5f 9c fc bd
       0.020852208 0.114484 0.0028858185 -0.12334513
000050 20 0b 84 3b 68 44 42 bc d0 98 dc 3c 88 dd 3f 3d
       0.0040296465 -0.01185713 0.026928335 0.046842128
000060 9c 21 65 bd f0 0d b5 3d 6e da 29 3e a6 70 5d 3c
       -0.055940256 0.08840549 0.1658723 0.013515627
000070 79 a6 74 bc ff be d7 3d fb 91 ad bd ab 6f 96 3d
       -0.014932268 0.105344765 -0.08475109 0.07345518
000080 6b c7 9a 3c 5e 12 1f bc 8d 29 72 3e 9a f9 66 3e
       0.018893918 -0.009708969 0.23648663 0.22556153
000090 8b fb b7 3d 1a 1d ab 3c b2 87 72 3d ee 57 53 b7
       0.08983525 0.0208879 0.05921144 -1.2597053e-05
0000a0 f2 e1 74 3d d3 6c a0 3d 41 2a 71 3d 72 01 af bd
       0.05978579 0.078332566 0.058878187 -0.085451975
0000b0 00 f8 18 3e cc 6e b3 3d ae b8 6a 3b d7 9e 5b 3e
       0.14938354 0.08761367 0.0035815644 0.21447311
0000c0 8c 24 8e bc 5e c0 c2 bd 00 46 30 bb f0 e8 5d 3d
       -0.017351411 -0.095093474 -0.0026897192 0.054177225
0000d0 f8 02 e3 3c 7a ff ae 3d 80 6e d6 3a 4e b7 2d bd
       0.027711377 0.08544822 0.0016359836 -0.04241114
0000e0 cd a2 dd bd 2e 9a 60 bd c0 60 81 3c b8 5a 5a bd
       -0.108220674 -0.054834537 0.015793204 -0.053309172
0000f0 63 45 53 3d ca 4a e2 bb c5 f4 da 3d 36 ea 7b bd
       0.051579844 -0.006905888 0.10691217 -0.061502658
000100 25 63 0f 3d 3f 87 8d bc d6 51 45 3e 48 61 8c 3d
       0.03500666 -0.017276404 0.19269499 0.068544924
000110 ec dd a4 3c 26 e1 c9 3c 66 c9 49 bd ee b2 af 3d
       0.020125352 0.024643492 -0.049264334 0.0857905
000120 f1 0c 29 be 80 a0 c4 3d 5b 18 66 3d 5a 18 0d 3e
       -0.16508843 0.096009254 0.05617557 0.1377882
000130 ab 71 9a 3d 66 03 bd 3d 6c 21 22 bc 5a 62 54 3d
       0.07541212 0.09229164 -0.009895664 0.051851608
000140 8a 65 23 3d 1d af d4 bc ed 38 43 bd 46 dd 03 3e
       0.039891757 -0.025962407 -0.04766171 0.12877378
000150 e8 be 54 3d 48 0f a9 bd dc 52 c3 bd 4c 69 cb 3d
       0.051939875 -0.08254868 -0.095372885 0.09932193
000160 82 e0 f1 3c a6 fd f3 b9 62 58 38 3e bc dd cb 3d
       0.029525999 -0.00046537555 0.18002465 0.09954402
000170 4e 70 96 bb 44 ca ed 3c 50 f8 8d 3d 4b 89 aa 3c
       -0.0045910245 0.029027112 0.069321275 0.02081742
000180 43 82 9e bd f3 d2 00 3e e0 e2 0e 3d 5b 4f e9 3d
       -0.07739689 0.1258047 0.034884334 0.11392089
000190 83 c3 96 bd d4 2b 26 3e 31 e9 a0 3c d6 91 e2 b9
       -0.0736151 0.16227657 0.019642444 -0.00043214735
0001a0 71 d3 56 3d 59 aa ce 3d db b3 bf 3d df 0a e0 3c
       0.05244774 0.10091085 0.093604766 0.027348934
0001b0 b7 ff 4e 3e 85 55 07 3e 41 60 de 3d 3c 74 00 be
       0.20214735 0.13216217 0.10858203 -0.1254434
0001c0 98 57 e1 bd 00 80 ed 3a 80 38 f4 ba d8 19 79 3d
       -0.11003035 0.0018119812 -0.0018632561 0.060815662
0001d0 de ba 1a 3e 86 19 e6 3d 2e a1 91 bd 8c 81 40 bd
       0.15110347 0.11235337 -0.07110821 -0.046998546
0001e0 ed 2f da 3d ad 12 61 3e 68 9a 91 bc 80 b4 cf 3d
       0.10653672 0.2197978 -0.017773822 0.101418495
0001f0 8a 2d 00 be 83 2f f2 3d 1b ab de 3d 7f 03 3d 3d
       -0.12517372 0.118254684 0.108724795 0.046145912
000200 78 ed 11 3d c9 b6 f8 3c 1d f1 9b 3d 0a 22 7e 3e
       0.03562686 0.030360596 0.07614348 0.24817672
000210 c0 cc 2d 3c 38 9d ce bd fd 58 90 bd da 6a f8 3d
       0.010607898 -0.10088581 -0.07048223 0.12129755
000220 53 a0 71 3e 51 bb 1b 3e 05 4d 23 3d 70 97 64 3e
       0.23596315 0.15208174 0.039868373 0.22323394
000230 97 e7 33 3e 8a da cc bc 6f 2d c4 bd 8b 6b d2 3d
       0.17568813 -0.025006551 -0.09578978 0.102744184
000240 4c 91 ca 3d 71 0f 2f 3d 28 dc 80 bd a8 ce 96 bd
       0.098909944 0.042739335 -0.062919915 -0.07363635
000250 90 89 8a 3d db 1a 1b 3e 18 eb d6 3b c2 ef 36 3e
       0.06764519 0.15146963 0.006558787 0.17864898
000260 f5 6d bd 3d d0 87 22 3e 9e 5b 1f 3e a1 06 cc bd
       0.09249488 0.15872121 0.15562293 -0.09962202
000270 d3 fe bf 3c 33 9d 25 3e b2 e9 9e 3d 4d bf c2 3d
       0.02343694 0.16173248 0.077594176 0.09509144
000280 a3 12 95 bc b3 8e 46 bd ca bd 04 bc c2 29 14 bd
       -0.018197363 -0.048475932 -0.00810189 -0.036172636
000290 0f 95 c9 bd 4d 14 93 bd dd 59 51 bd be af 1c 3e
       -0.09842884 -0.071816064 -0.05111109 0.15301415
0002a0 a1 41 4e 3c f9 6c 79 bd 93 7e fd 39 cb 9f db 3d
       0.012588889 -0.06089494 0.00048350226 0.107238375
0002b0 99 20 bf 3d e0 8b a9 bd 3e 87 16 3d 54 e2 70 bd
       0.093323894 -0.08278632 0.03675007 -0.058809593
0002c0 04 2e 75 bb 9c 1c 7b 3e 54 12 1d 3e 05 05 17 3d
       -0.003741146 0.24522632 0.15339023 0.03687002
0002d0 f1 61 09 3e 00 2b d0 3d 05 c8 83 3d 63 e1 19 3d
       0.13416268 0.101644516 0.06434635 0.03756846
0002e0 c1 85 2b 3e 7e 3f 3e 3e b4 18 27 bd 04 a8 5b 3e
       0.16750242 0.18578908 -0.040795043 0.21450812
0002f0 15 ad 44 3e f3 64 ae bd 0e ea 90 3d cf d3 08 3e
       0.1920665 -0.08515348 0.070758924 0.13362049
000300 b0 d4 74 3e 3a 22 42 3b 32 6c 46 3e 59 3d a2 3c
       0.23909259 0.0029622451 0.1937721 0.019804643
000310 74 86 dd bc 40 c4 eb bd 6e 1d fd 3d f3 17 5c bd
       -0.027041651 -0.11512041 0.12359129 -0.053733777
000320 bf a7 4b 3e f7 9f 64 bd 6f ca 0c 3e 03 06 ca bd
       0.19888209 -0.055816617 0.13749097 -0.09864428
000330 41 ac d3 bb 5f 9f a2 3d 9a 44 6c bd 23 9d d8 3d
       -0.0064597433 0.07940554 -0.05768261 0.105768465
000340 30 a3 a3 3d 27 75 61 3e 53 20 9b 3d 79 39 00 3e
       0.0799011 0.22017346 0.07574525 0.12521924
000350 c4 f6 b7 bc c2 62 de 3d b6 e2 8f bd 90 91 e0 3d
       -0.022456534 0.1085868 -0.070256636 0.10965264
000360 78 58 45 bd 6a c0 fe 3d 66 b7 96 3d dc de 41 bd
       -0.048180073 0.12439044 0.07359199 -0.047331676
000370 5b 69 1c 3d 46 b4 84 bc 86 a3 0f 3e a4 77 19 3e
       0.038186412 -0.016199242 0.14027223 0.14987046
000380 c7 46 b1 3c e9 94 a5 3d 23 fe 63 3e 59 4e fd 3c
       0.021640195 0.08085043 0.22264914 0.030921148
000390 d1 96 36 3c 98 4d 1b bd 27 bd 27 bd b3 c6 2e bc
       0.011144356 -0.037915796 -0.040951874 -0.010667491
0003a0 04 c5 c1 bd 3c 5f 6d 3d e8 7a ad 3d 4e 5b be bd
       -0.09461406 0.05795215 0.08470708 -0.09294759
0003b0 80 98 be bb be a2 a9 3d 3a 59 f3 bd 20 9f cc 3c
       -0.0058165193 0.08282994 -0.11882253 0.02497822
0003c0 ea 89 80 bd e8 49 8f 3c 40 b3 a6 3c 60 66 0a 3c
       -0.06276305 0.017491296 0.020349145 0.00844726
0003d0 b4 0b 7b bd 88 fc 98 3d 64 89 11 3d 5a 28 4d bd
       -0.061290458 0.074700415 0.035531417 -0.05008731
0003e0 00 1d d9 3b c0 db 89 bc 4b de 87 bd 6c b6 57 3d
       0.0066257715 -0.016828418 -0.06634196 0.052664205
0003f0 a6 c3 dd 3d 20 0e 69 3c 9c b8 d4 3d c0 56 13 3c
       0.108283326 0.014224559 0.10386774 0.008992851

lstm.weight_hh_l0 f4 [240, 60]
000000 ef b5 92 bd 70 5d 85 bd 6e e0 95 bd ee 99 47 bd
       -0.07163607 -0.065119624 -0.07318197 -0.048730783
000010 16 ee b4 3d ef 27 04 be 7e 01 b7 3d de 4c f0 3d
       0.08834474 -0.12905858 0.089358315 0.11733411
000020 b4 35 ce bc c8 87 cf 3c 40 47 7e 3b b4 9f 2a bd
       -0.025172092 0.0253333 0.0038799793 -0.04165621
000030 9a fb e4 bd 40 6d 9e 3c e2 67 d5 bd 9f 00 8e bd
       -0.11180802 0.019339204 -0.10420205 -0.06933712
000040 08 4d 7d 3d 00 26 f5 3a f4 fe 16 bd 2e ca 95 bd
       0.06184104 0.0018703341 -0.036864236 -0.07313953
000050 ff b1 c8 bd 70 78 fe 3c 2e 5e 40 bd e2 5d 79 bd
       -0.09799575 0.031063288 -0.046964817 -0.06088055
000060 dc 98 77 3d a0 96 fa 3c 55 87 80 bd 28 0d 04 bc
       0.060448512 0.030589402 -0.062758125 -0.008059777
000070 4a 4e fb bd 7c 48 0a bd 9e 92 d8 bd ac f5 c1 bd
       -0.12270792 -0.033760533 -0.1057484 -0.09470686
000080 58 74 d7 3d 72 0a f3 3d 90 ba 6c 3d f0 13 e5 3d
       0.10520238 0.11867227 0.057795107 0.111854434
000090 00 b8 1f bc 64 7c f1 3d 4c c2 e1 bd d4 ed 71 bd
       -0.009748459 0.11791304 -0.11023387 -0.0590647
0000a0 98 62 d7 bc 1e d3 e3 3d 0a 51 dc bd 66 03 c6 3d
       -0.02629213 0.11124252 -0.107576445 0.09668617
0000b0 90 66 a0 3c a2 a1 e9 3d 4e b7 f3 3d 70 0d 36 3c
       0.019580156 0.11407782 0.11900197 0.011111602
0000c0 50 81 48 bd 20 ef fc 3c e8 a8 e5 3d 44 53 ac bd
       -0.048951447 0.030875742 0.11213857 -0.08414319
0000d0 28 48 35 bc 10 fe 15 bc 67 67 03 3e 5a 22 fb 3d
       -0.011064567 -0.0091548115 0.12832414 0.122624114
0000e0 78 cf d6 3d cc c8 a3 bd 50 12 91 bb d0 20 df 3d
       0.1048879 -0.07997283 -0.004427232 0.1089493
0000f0 d8 4c 80 bd 84 f2 b1 bc f0 73 95 bd 74 86 57 bd
       -0.06264657 -0.021722086 -0.07297504 -0.05261846
000100 76 5b 8b 3d 80 5c 99 3d fa 4a 6b bd e0 97 4a bd
       0.06804554 0.07488346 -0.05744455 -0.049461246
000110 72 ad 88 bd ac 99 ce 3d 8b 8b 02 3e 7e 10 9b 3d
       -0.06673707 0.10087904 0.12748544 0.07571505
000120 60 a4 e0 3b d0 25 8e bc 6c 31 e9 3d 60 88 c8 3d
       0.0068555325 -0.017352015 0.113863796 0.097916365
000130 16 d7 dd bd 1f f7 fa bd f0 e7 b1 bd fc 45 40 bd
       -0.1083204 -0.12254166 -0.08686817 -0.046941742
000140 70 6c 19 3d 1c 11 7f bd c4 7a 63 3d 67 ce c7 bd
       0.03745693 -0.062272176 0.055537 -0.09756165
000150 0e 91 75 bd 76 ce 8e 3d 78 9c 55 3d 20 07 3c 3c
       -0.059952788 0.06972973 0.052151173 0.011476308
000160 40 f4 98 3b d4 6c 56 3d d8 72 e1 bd ec 57 d9 bc
       0.0046677887 0.05234988 -0.11008233 -0.026531182
000170 a8 a3 91 3d 6c ce fe bd c8 79 42 bd bc 20 86 3d
       0.07111293 -0.124417156 -0.04747942 0.06549212
000180 34 83 8e bd c2 89 9c bd 60 b5 ca bd 1c 96 55 3d
       -0.06958619 -0.07643463 -0.09897876 0.05214511
000190 f0 bb 94 bb 68 52 cf 3c 2c a6 7b bd 08 a3 21 bc
       -0.0045390055 0.025307849 -0.06143777 -0.00986553
0001a0 28 8a a2 3c 38 62 9c 3d 24 be 79 3d 62 d5 7e bd
       0.019841269 0.07635921 0.060972348 -0.062215216
0001b0 90 cd 4e 3c 5d 74 f3 bd 70 43 60 bc d6 0a 20 bd
       0.012622252 -0.11887429 -0.013687953 -0.039072834
0001c0 a0 fb ff bc 20 ed 8e bd 30 ea fc 3c e8 23 d2 3d
       -0.031247914 -0.06978822 0.030873388 0.10260755
0001d0 d4 c9 54 3d 34 61 e7 3d 8c 49 8f bd 4a 96 8e 3d
       0.05195029 0.11297837 -0.0699645 0.06962259
0001e0 32 e4 90 3d 20 2d 44 3d c0 98 e6 3d 80 42 98 bd
       0.07074775 0.047894597 0.112596035 -0.07434559
0001f0 b2 59 cf bd 56 bf 61 bd a2 10 ed 3d 98 d7 4d 3d
       -0.1012453 -0.055114113 0.11575438 0.050254434
000200 0a b5 ed 3d a7 78 b1 bd 40 3f e7 3d 2c ab f1 bd
       0.11606796 -0.08665591 0.11291361 -0.118002266
000210 68 e9 69 bc 8e 6d 93 3d 68 a4 54 bc 84 8b b6 bc
       -0.01427684 0.0719863 -0.012978651 -0.022283323
000220 0b 84 02 be a0 89 d5 bd 90 1d 75 bd 3e 7b 86 3d
       -0.12745683 -0.104266405 -0.059842646 0.06566475
000230 80 f2 b2 3b 62 6e f9 3d a2 7f dc bd 72 90 58 bd
       0.005461037 0.12179257 -0.107665315 -0.05287213
000240 82 9c 00 be 2e ff e2 3d 7f 72 9e bd 66 9c 24 bd
       -0.12559703 0.11083828 -0.07736682 -0.040188216
000250 38 59 b0 3d f0 85 11 bd 36 b5 08 bd dc d9 12 3d
       0.08610767 -0.035528123 -0.03337594 0.0358523
000260 70 5c 99 bc cb 49 f7 bd 50 5f fb bd d8 e7 76 3d
       -0.018720835 -0.12074622 -0.12274039 0.060279697
000270 31 33 de bd 58 ea a0 3d 3e 6f ab bd b4 1a d2 3d
       -0.10849608 0.078571975 -0.08370827 0.102589995
000280 da 75 d6 3d 58 c2 fb bc f2 76 3b bd 3c 9b 56 3d
       0.10471697 -0.030732319 -0.045767732 0.052394137
000290 5c 94 9e 3d 80 9f f5 3c 16 37 e3 bd fc 23 a2 bc
       0.07743141 0.029983282 -0.11094491 -0.01979255
0002a0 ec 46 34 bd 78 41 b8 bd 30 e9 ef 3d c8 d7 f5 3c
       -0.04401295 -0.08996862 0.11714399 0.03001012
0002b0 b1 c7 d1 bd 80 f1 14 3c 00 58 22 ba c0 c7 59 3c
       -0.10243166 0.009090781 -0.00061929226 0.013292253
0002c0 b4 db 65 bd 88 9e 1e 3d c6 8c e1 3d aa fd 01 be
       -0.05611773 0.038725406 0.110131785 -0.12694421
0002d0 40 f7 32 3b 0c 78 94 bd 30 61 43 bd 02 01 08 bd
       0.0027308017 -0.072494596 -0.047700107 -0.033204086
0002e0 e0 e0 ec bc 74 e3 84 3d 66 7b fc 3d a0 28 8a 3d
       -0.028915823 0.06488696 0.12328224 0.0674603
0002f0 9c ee b3 bc 5e 82 cc 3d de 78 01 be 90 fd e3 bc
       -0.021964364 0.09985803 -0.12643763 -0.027830869
000300 1f b0 a1 bd 14 61 ce bc 1c d5 e3 3d 3c db e8 3d
       -0.078949206 -0.025192775 0.11124632 0.11369941
000310 f4 6c 87 3d 59 a8 d6 bd e5 b0 99 bd 60 d3 84 bd
       0.06612578 -0.104813285 -0.07504443 -0.06485629
000320 04 e8 c4 3d 90 e2 a2 bd ac db a0 3d 7a 36 ae bd
       0.09614566 -0.079533696 0.07854399 -0.08506484
000330 08 9e e4 3c 64 d7 38 3d 68 83 a5 bd d5 46 fb bd
       0.027907386 0.045127288 -0.080817044 -0.122693695
000340 90 0a 07 bc 69 18 fc bd 88 3f a9 3c ac 26 a5 bd
       -0.008242264 -0.12309343 0.020660177 -0.08064017
000350 18 35 7b 3d 1c 64 0c 3d 20 42 f2 3d df 20 ab bd
       0.06132993 0.03427516 0.118290186 -0.08355879
000360 d4 6a 3c 3d f6 66 97 bd 13 8a 02 3e 7c fe d2 3d
       0.046000317 -0.07392685 0.12747984 0.10302445
000370 ec e2 86 bd 88 21 d4 3c 48 2c 66 3d 9a 43 9a 3d
       -0.06586251 0.025894895 0.056194574 0.07532425
000380 d4 41 62 3d c4 fc 6d 3d 12 5c d9 3d 78 83 2e 3d
       0.05523856 0.058102384 0.10613264 0.042605847
000390 34 d4 02 bd 8a a0 a9 3d e8 b4 3a bd 30 62 d3 3d
       -0.031940654 0.082825735 -0.045582682 0.10321462
0003a0 c0 91 bf bc 6c 67 7e 3d 98 ac 06 3d 4c 39 90 3d
       -0.023384929 0.06211035 0.032879442 0.070421785
0003b0 47 b6 d3 bd e4 0a b0 bd b6 df f9 bd 18 13 80 3c
       -0.10337501 -0.08595827 -0.122008726 0.015634105
0003c0 7c 97 48 bd b8 d0 ad bd 90 c0 fa 3c 46 c8 c0 bd
       -0.04897259 -0.084870756 0.0306094 -0.09413199
0003d0 00 c0 5c bc 76 38 e2 bd 28 76 f5 3c 68 34 b9 3c
       -0.013473511 -0.11045925 0.029963568 0.022607997
0003e0 70 61 f5 3d be 28 df 3d 37 1d 00 3e 88 5b cb 3d
       0.11981475 0.10896443 0.12511145 0.099295676
0003f0 00 d3 98 3d ac c0 ed 3d a8 ed 03 3d 70 b8 33 3c
       0.0746212 0.11609015 0.03220907 0.010969266

lstm.bias_ih_l0 f4 [240]
000000 18 4e 7b 3d 0c 5d b0 bd 6d e1 18 bd 7f 9d c5 3d
       0.061353773 -0.08611497 -0.037324358 0.096491806
000010 f4 8e b2 bc 54 67 03 bd af 3a 6e 3c b3 f5 70 bd
       -0.021796681 -0.032080963 0.014540358 -0.058828067
000020 35 5b 82 3d da 17 6f bd 09 dc df 3d 0b 50 71 bc
       0.063650526 -0.058372356 0.1093064 -0.014728556
000030 84 6e c7 bd 48 81 ca 3d b4 fa 58 3d 52 89 1b 3b
       -0.09737876 0.0988794 0.052973464 0.0023732972
000040 d0 9e 7d 3d 57 aa bf 3d a0 35 07 bb e4 f0 46 3c
       0.061919034 0.093586616 -0.0020631328 0.012142394
000050 b6 d4 05 bd 50 e4 16 3c 23 cb 59 3e 68 46 06 3d
       -0.03267356 0.009209707 0.21268897 0.03278199
000060 c3 0b e8 3c b4 75 d3 3d e9 4f d0 bd fc b7 5d 3d
       0.02832592 0.103251845 -0.10171492 0.05413054
000070 d0 71 c2 bc f2 3f ae 3d 28 9c 58 3e e7 27 bf 3c
       -0.02373591 0.0850829 0.21153319 0.023334457
000080 99 58 f3 3c 7c df 1d 3d 52 f5 06 bb 78 4b 92 3d
       0.029705333 0.03854321 -0.0020593 0.07143301
000090 a4 fa 2e bd 10 37 76 3e 47 71 31 bd 2c 29 47 3d
       -0.0427195 0.24044442 -0.04332092 0.04862325
0000a0 11 23 0c 3e a3 b3 89 3d 5d 5c 9e bd cb b9 bc 3d
       0.13685252 0.06723716 -0.07732461 0.09215125
0000b0 00 97 4a 3d 6a 22 a6 bd 0a c9 00 bd c7 bd 08 3e
       0.04946041 -0.08112033 -0.031441726 0.13353644
0000c0 70 ef 18 3e 9a 70 cb bd 9c 90 0f 3d c8 6c 85 3c
       0.14935088 -0.099335864 0.03505002 0.016287223
0000d0 e0 38 be 3d 5e 57 ee 3d 76 75 c2 bd 36 8e 53 3e
       0.09288192 0.11637758 -0.0949506 0.20659718
0000e0 d0 ea 69 3d eb 7d d0 3d a8 82 b7 3d 5c ad bb bd
       0.0571087 0.10180267 0.089604676 -0.09163925
0000f0 d4 cd bc bc d8 da a6 3d 20 17 5c 3c 0d 4e f3 bd
       -0.023047365 0.0814721 0.013433248 -0.118801214
000100 7a f1 00 be 5e 03 ef bd f4 6f a4 bd 5a c8 7f bd
       -0.12592116 -0.11670564 -0.08029166 -0.06244693
000110 72 8c d6 bd 70 72 c3 bb 08 73 c5 bd c6 67 f5 3d
       -0.104760066 -0.0059645697 -0.09641081 0.11982684
000120 b3 ec ae bd 69 cc 02 be 1c 39 8e bd 40 90 d2 3b
       -0.085412405 -0.12773289 -0.069444865 0.0064258873
000130 20 b8 39 3d 04 a5 89 bd 68 49 f5 bd 82 ef f8 3d
       0.04534161 -0.06720927 -0.11976892 0.121550575
000140 9e b3 ba 3d 5a 0d c3 3d e4 ea b9 bd 51 59 fb bd
       0.091162905 0.09524031 -0.09078005 -0.12272895
000150 b4 36 ef bc 38 48 38 3d e0 f1 f4 bd 60 b1 88 3b
       -0.02920089 0.04499075 -0.119601965 0.0041715354
000160 d4 6c e5 3d 10 0f 2d 3d 3e 09 99 bd a4 a7 cb bc
       0.11202398 0.042250693 -0.07472466 -0.02486021
000170 b4 6a 40 bd 54 e8 a7 bd 78 55 3a 3d b6 2f a4 bd
       -0.04697676 -0.0819861 0.045491666 -0.08016913
000180 20 5b 41 3c 00 c3 d2 bd f8 11 7d 3d 08 d3 f4 3d
       0.011801511 -0.102910995 0.061784714 0.119543135
000190 a0 5a fc bc 00 cc 49 3b 34 a5 5f 3d 6e 0b 99 bd
       -0.030804932 0.003079176 0.05460091 -0.07472883
0001a0 5a c3 d3 bd ae e1 f8 3d 20 2e e9 3c 3a 07 cb bd
       -0.10339995 0.1215242 0.028464377 -0.09913488
0001b0 b8 52 9b bd 04 a6 fb bc ac 40 c7 3d 1f 26 80 bd
       -0.07584137 -0.03071881 0.09729132 -0.06257271
0001c0 7c 8a d0 3d e2 56 31 bd e4 c6 9b bd 4e c6 dc 3d
       0.10182664 -0.04329575 -0.07606295 0.10780011
0001d0 a0 a7 e4 bb 04 eb 4c 3d 0a 5d bd 3d 9c 0b c9 bd
       -0.0069779903 0.050028816 0.092462614 -0.098166674
0001e0 58 eb cd bd 2c 54 d6 bc 8a d8 96 3d 36 4f e8 3b
       -0.10054654 -0.026163183 0.0736552 0.007089521
0001f0 40 ca b5 3b 0c ed d5 bc 41 0d e4 3d 6c f2 3b bd
       0.0055477917 -0.02611401 0.111353405 -0.04588549
000200 90 5c b2 bd 0a 2a b6 3d e4 41 73 bd 92 c3 03 3d
       -0.08709061 0.08894737 -0.05938901 0.032168932
000210 38 ed 56 bc d2 7b 84 bd 70 b2 bc bb 27 d2 d0 3b
       -0.013118081 -0.06468929 -0.005758576 0.0063727084
000220 87 11 36 ba a1 51 ad bc 5e 64 1f 3e 32 db 8a 3b
       -0.0006945361 -0.021157088 0.15565631 0.004237556
000230 58 23 ac 3c e4 ff f0 bd f0 8c c3 3d 94 b4 2c 3d
       0.021012947 -0.11767557 0.09548366 0.0421644
000240 2e 09 09 3e 45 50 29 bc 97 17 b1 bc d0 89 c2 3d
       0.13382408 -0.010334079 -0.021617694 0.09498942
000250 2b df 84 bd 92 ad 83 bd 36 52 4d bd 10 a3 10 3e
       -0.064878784 -0.0642959 -0.05012723 0.14124703
000260 17 0a bb 3d 85 d0 fc bd 3c eb 7b 3d 83 cf ad 3d
       0.09132784 -0.123444594 0.061503634 0.08486845
000270 46 cc 86 3d 51 23 aa 3d e1 54 43 bd 67 c2 8e bc
       0.06581931 0.08307517 -0.04768837 -0.017426683
000280 19 21 99 3d a1 32 c9 bd 74 d0 e8 3d a4 ba 03 3d
       0.07477016 -0.0982411 0.11367884 0.032160416
000290 f5 8e e6 bc 81 ac d8 3d 12 15 0d 3e a6 98 6a 3c
       -0.02814434 0.105797775 0.13777569 0.014318621
0002a0 1e df 4e 3c 6e f5 3e 3d cf 35 f4 3d cb 75 ed 3d
       0.0126264375 0.04662078 0.11924326 0.11594733
0002b0 9d af c2 bc 14 e0 a7 bc 20 17 a1 3b 7b 63 af 3d
       -0.02376538 -0.020492591 0.004916087 0.08563896
0002c0 ba 6c e1 3d 1c 44 6f 3d a0 48 ed 3b d8 3a f9 3c
       0.11007066 0.058414564 0.0072413236 0.030423567
0002d0 d2 52 60 bd 42 b3 fd 3d d4 e6 21 bd dc 16 e3 bb
       -0.054766484 0.12387706 -0.039526775 -0.0069302153
0002e0 e1 19 a4 bd a8 4f 0f bd 01 eb e1 3c 4d 50 c6 3a
       -0.080127485 -0.034988075 0.027577879 0.0015130133
0002f0 73 f6 14 3d ae 49 27 3b fa 24 08 bd 2e 7e 34 3e
       0.036367845 0.0025526094 -0.03323839 0.17626259
000300 24 84 d1 bc 70 a4 95 bd c0 bc d5 bb 9b 9e 5d 3d
       -0.025575705 -0.073067546 -0.006522745 0.054106336
000310 e2 d9 3e 3e 3e c2 cc bc dd 38 41 3e d0 d4 0b 3e
       0.18637803 -0.024994966 0.18869348 0.136554
000320 ca c4 48 bd 12 0d 86 3d 51 4c 27 3e ec 43 81 bc
       -0.049015798 0.06545462 0.16337706 -0.015779458
000330 a5 d0 91 bd 36 4f 66 3e 72 2b 00 3e b6 9a 90 bc
       -0.07119874 0.22491154 0.12516573 -0.017651897
000340 90 1b a5 bd a1 da 3b 3d 4f 15 49 3e 29 12 24 3e
       -0.08061898 0.045862798 0.19637035 0.16022553
000350 e6 3d 1c 3e e9 d0 aa bd 9b 9b ad 3d fc 4f ca bd
       0.15257987 -0.08340628 0.08476945 -0.09878537
000360 31 18 d1 3d 54 1e b8 3d 63 8c 9a 3d 29 62 3c 3e
       0.10209692 0.0899016 0.07546308 0.1839682
000370 ad 83 0f 3e 01 25 46 bc 23 1e f1 3d c1 5a 03 be
       0.14015074 -0.012093783 0.11773326 -0.12827589
000380 47 5c 4c 3e 7f 0f 00 be 33 1d d1 3b af a0 0a 3d
       0.19957076 -0.12505911 0.0063816546 0.033844646
000390 17 fd b3 3c 4f e5 1e bc c9 c4 a3 3d 0b de 28 3e
       0.021971269 -0.009698226 0.07996518 0.16490953
0003a0 c8 be 95 3d 51 92 88 bd 70 a1 62 3d b4 ab 2a 3e
       0.07311779 -0.06668533 0.05532974 0.16667062
0003b0 87 5f 25 3e aa 49 df bd 1a 5e 1f bd 9a dd 4c bd
       0.16149722 -0.10902722 -0.0389081 -0.050016023

lstm.bias_hh_l0 f4 [240]
000000 d2 4a 88 3d 00 a3 17 3c ee 57 dd 3d 02 dc 5f bd
       0.06654896 0.009255171 0.10807787 -0.054653175
000010 78 23 54 bd 4c 37 a6 3d 24 b5 51 3e d4 d3 fa 3c
       -0.051791638 0.08116016 0.20479256 0.030618586
000020 14 07 09 3d 5b ac 31 3d af 44 fe bd d4 1f 25 3c
       0.033454016 0.04337726 -0.12415444 0.010078389
000030 20 48 97 bc 58 0b b6 bc 08 42 92 3c c1 ca e6 bc
       -0.018467009 -0.022222206 0.017853752 -0.028172852
000040 dd d9 19 bd 5d 6b a4 bc 43 3b e0 3c 23 14 35 bd
       -0.037561286 -0.020070726 0.027372008 -0.044208657
000050 07 cb d4 3c b0 c8 7a bc 9f ef 2e 3e 9e 24 e0 bc
       0.025975717 -0.015306637 0.17083596 -0.02736121
000060 0e 92 e4 bd 36 e0 42 3e 77 3b 24 3d 73 dc ac 3c
       -0.1116067 0.19030842 0.040095773 0.021101212
000070 c8 54 b9 bd 0b 69 ba bc 8e e8 eb 3d 6d 07 17 3a
       -0.09049374 -0.022755167 0.11518966 0.00057612994
000080 c5 79 69 3e 4e 60 b8 bd d8 a6 0c 3e ec 44 e2 bd
       0.22800358 -0.09002744 0.13735521 -0.11048302
000090 3e 7c 92 3d e9 d7 8d 3b 27 22 c6 bd 40 7e 05 3e
       0.071526036 0.004328717 -0.09674483 0.13036442
0000a0 0e 3c 52 bb 01 10 20 3d f5 38 1d 3e 21 a1 f8 bd
       -0.0032079252 0.039077763 0.15353759 -0.12140108
0000b0 c4 30 67 3d 07 4b 5e bc 7c 5c b1 3d fb 62 d4 bd
       0.05644299 -0.013567693 0.08660218 -0.103704415
0000c0 36 f7 91 3d 43 49 0f 3e 86 38 71 bd 83 44 ce bc
       0.0712723 0.13992791 -0.058891796 -0.025179153
0000d0 d7 f6 75 3d 28 7f 79 3d 00 a4 3f ba ce e9 24 3d
       0.060049858 0.06091228 -0.00073105097 0.040262036
0000e0 9d 89 fb 3d 02 4f ad bd 19 17 e0 bd cf ea 9e bd
       0.12282107 -0.08462335 -0.109419055 -0.0775963
0000f0 d0 b9 97 3c c6 ed 0b bd ef 46 fa bd 14 0b e1 bc
       0.01852122 -0.034162305 -0.12220561 -0.027471103
000100 d9 64 00 3e b4 0c 05 3d 32 b3 94 3d 46 c2 84 3d
       0.1253847 0.032482818 0.07260741 0.06482367
000110 2e 2c f1 3d f2 9b 9f 3d 1e 54 70 bd c8 2a 5e 3d
       0.11776005 0.07793416 -0.05867397 0.054240018
000120 6b 44 c7 bd 9e 16 71 bd 70 05 da 3c 66 60 d6 bd
       -0.097298466 -0.05885946 0.02661392 -0.10467605
000130 f0 22 e6 bb 21 4d 81 bd 36 66 a7 bd 90 d1 d0 bd
       -0.007023208 -0.06313539 -0.08173792 -0.10196221
000140 12 f1 1c bd 90 18 0e bd cc f1 f7 bd 94 56 34 3d
       -0.03831584 -0.034691393 -0.12106666 0.04402788
000150 b4 2f bf bd c0 80 4f 3c 3e 81 e2 bd 20 d8 be 3d
       -0.093352705 0.012664974 -0.11059807 0.09318566
000160 10 73 de bb 78 39 9e bc 00 7a 09 ba f4 27 f7 bc
       -0.006788619 -0.019314513 -0.00052443147 -0.030170418
000170 4a 61 99 bd d4 72 a9 bc d4 14 05 3d 84 f5 e9 bd
       -0.074892595 -0.020684637 0.032490566 -0.114237815
000180 f4 a7 e4 bd 40 7f 1d 3b ff 75 d9 bd 79 ab 02 be
       -0.11164847 0.0024032146 -0.10618209 -0.12760724
000190 76 36 3f bd b0 32 f9 bc b0 06 61 3d aa 62 bf bd
       -0.046682797 -0.030419677 0.05493802 -0.093449906
0001a0 c0 c4 2f 3c 3a e0 09 bd 98 b5 d7 3c d6 c0 33 bd
       0.010728061 -0.033661105 0.026331708 -0.043885075
0001b0 b6 5d 58 bd 3c 66 d2 3d 55 0c fd bd bc 1a ca 3d
       -0.052823745 0.10273406 -0.12355868 0.098683804
0001c0 1c 11 66 3d fc 54 3d 3d 7d 88 84 bd a2 5f f5 bd
       0.05616866 0.046223626 -0.064713456 -0.11981131
0001d0 dc 49 39 bd 4d 9f c6 bd 5a 06 87 bd 30 fc 6c 3c
       -0.045236453 -0.09698353 -0.06593008 0.014464423
0001e0 88 f7 df bd cc 35 d4 bd d8 dc b7 3d 45 40 fd 3d
       -0.10935885 -0.103618234 0.089776695 0.12365774
0001f0 18 53 d8 bd ea 6c fb bd ef 6d d4 3d bd c1 00 3e
       -0.10562724 -0.12276633 0.10372531 0.12573905
000200 10 76 ae 3d 54 ab 85 3d 48 93 a3 bd 24 b6 c8 3c
       0.085186124 0.06526819 -0.07987076 0.024500914
000210 a8 fc 33 bd 89 41 fc bd 32 ad 2b bd 77 6c 0e 3e
       -0.043942124 -0.12317187 -0.04191322 0.13908564
000220 82 7f c8 3c ee a2 41 3d 5e 55 a0 3d 60 22 05 3e
       0.024474863 0.047274522 0.078287825 0.13001394
000230 c2 f9 94 3d cc e5 16 bd 31 c4 b9 3c df a7 6d bc
       0.072742 -0.036840245 0.02267656 -0.014505356
000240 64 b2 86 bd 13 68 36 3e ae 47 08 3e b5 53 43 3c
       -0.06576994 0.17813139 0.13308594 0.011921813
000250 12 b9 f6 bd f4 0f d0 3d 0d 55 e0 3c dd eb 98 3d
       -0.12047018 0.10159293 0.027384305 0.07466862
000260 01 07 72 bc f0 cf e6 bd 5d 8e 0d bc c4 82 ab 3c
       -0.014772178 -0.1127013 -0.008639899 0.020936377
000270 35 cc 39 3d 06 80 8b bc c2 76 07 3e 59 24 88 3d
       0.045360763 -0.01702882 0.13228896 0.06647558
000280 97 e3 89 3d f7 26 fd 3d 92 cf 52 3d 28 62 03 3d
       0.067328624 0.123609476 0.051467486 0.03207603
000290 b2 e9 46 3d 8b 27 2c bd e4 7e 37 bd 0d fa 8b 3d
       0.048562713 -0.0420299 -0.044798747 0.06834803
0002a0 2d 49 9c bd 88 e2 8f 3d b2 aa 19 bb 6d d3 aa bd
       -0.07631145 0.07025629 -0.002344769 -0.083411075
0002b0 75 10 97 3d aa 13 4a bd b0 ee e1 bd 03 55 97 bd
       0.07376186 -0.04933516 -0.11031854 -0.073892616
0002c0 9b c9 b8 bd 44 78 58 3d 36 ab a3 bd f7 5e fd bd
       -0.09022828 0.05284907 -0.0799164 -0.12371629
0002d0 b0 35 6a 3d c8 1b 0c bd 37 60 98 3d be a4 0d 3c
       0.057180107 -0.03420618 0.074402265 0.008645235
0002e0 a4 e7 3a 3d 30 bc 2c 3d 98 19 ef 3d 0c e3 b1 3d
       0.045631066 0.042171657 0.116748035 0.08685884
0002f0 e9 f5 6b 3e ef dc c0 bc 59 2c b9 3d e7 4b 43 3e
       0.23043026 -0.02354285 0.09041662 0.19071923
000300 c0 d3 41 3d e0 f6 bd 3c ce bc b7 3d 9d 52 90 3b
       0.04732108 0.023189008 0.089715585 0.0044043795
000310 cd b3 e3 3d eb 92 c9 bd 93 c7 41 3e ab 1e 21 3e
       0.11118279 -0.098424755 0.18923788 0.15734355
000320 6b b3 b4 bd a7 98 cc bd e3 2c 44 3e dd 7a f5 bb
       -0.08823284 -0.099900536 0.19157748 -0.007491453
000330 cd ac 90 3c 09 b4 87 3b 05 38 b6 bb 7b 97 0f 3e
       0.017660523 0.004141335 -0.0055608773 0.14022629
000340 3c 47 cb 3d 7d cd 87 3d 9d 96 f4 3c b8 6f 42 3d
       0.09925696 0.06630991 0.029856974 0.047469825
000350 43 07 db 3d 00 10 cc 38 70 ff d4 3d f4 49 40 3c
       0.106947444 9.730458e-05 0.10400283 0.011736382
000360 02 22 0c 3e c3 16 41 3e 99 a9 1f bd ea 3f 30 3e
       0.13684848 0.18856339 -0.0389801 0.17211881
000370 b1 3c 6c 3d 2d 01 f7 3d 9f 6a aa bd 43 dc cb bd
       0.057675067 0.12060771 -0.083211176 -0.09954121
000380 dc da 26 3c 3c ed 30 3b 24 89 23 3c b2 1b 84 bc
       0.010184016 0.0026996871 0.009981427 -0.016126487
000390 9b 63 ca 3d b3 31 87 bd 4e 45 03 bc d5 b2 aa bd
       0.098822795 -0.06601276 -0.008012129 -0.08334891
0003a0 b1 f4 3d bb 90 1e bf 3d 20 36 59 3c e9 86 24 3e
       -0.0028984959 0.09332001 0.013257533 0.16067089
0003b0 f9 fd 10 3e df f1 98 3d 22 e9 f2 3d 80 a0 b6 3c
       0.14159383 0.07468008 0.11860873 0.02229333

fc_1.weight f4 [310, 60]
000000 60 10 ab 3b 98 13 f0 3c 50 0f 1e bc 22 77 92 bd
       0.005220458 0.029306218 -0.0096472055 -0.07151629
000010 dd 3b d4 bd 48 66 a5 3c 72 c8 e7 bd fe 67 b9 bd
       -0.103629805 0.020190373 -0.11317529 -0.09053038
000020 24 43 2a 3d 4c 21 ce bc a0 46 57 3d 7a ae 9b 3d
       0.041567937 -0.025162362 0.052557588 0.07601638
000030 78 4e 6e 3d e8 f3 16 3d 38 e9 1b 3d f4 97 cb 3d
       0.058180302 0.0368537 0.03806421 0.09941092
000040 bc 44 d6 bc 42 90 e8 3d e8 52 af 3c ec fd ad 3d
       -0.026155822 0.1135564 0.021401837 0.084956974
000050 7a 1a a4 3d 98 f7 e3 3c f0 c8 18 bc d4 95 5d 3d
       0.080128625 0.027828023 -0.009325251 0.054097965
000060 50 2e 6e 3c 35 04 03 3e 88 98 0b bd f0 a7 69 3d
       0.014537409 0.12794574 -0.034081012 0.057044923
000070 d8 d1 a0 3d 74 51 19 3d b8 0c f3 bd fc 5a 8e bd
       0.078525245 0.037431195 -0.1186766 -0.06950948
000080 5a 49 e5 bd 16 42 89 3d 40 93 89 3d 58 4e ab bc
       -0.11195631 0.06702058 0.06717539 -0.02091138
000090 94 2d 04 be 3a cf 58 bd 4f 94 9b bd 88 17 87 bd
       -0.12908012 -0.052932 -0.07596647 -0.06596285
0000a0 80 51 c4 3c 00 6c 59 b9 c4 f4 3c 3d b4 7e 92 bc
       0.023964643 -0.00020734966 0.046131864 -0.017882682
0000b0 ef 25 02 3e 60 8c 24 3c e2 6d 32 bd d4 c8 24 3d
       0.12709783 0.010043234 -0.043561824 0.040230587
0000c0 22 90 d9 3d 60 b9 7d 3d 2a 4e a6 bd 54 8e b7 3d
       0.10623194 0.061944366 -0.08120377 0.08962694
0000d0 fa 56 c9 bd b8 f0 34 bd 54 c0 b1 3d 40 76 7c bd
       -0.098310426 -0.04417488 0.08679262 -0.06163621
0000e0 20 2c 81 3c 16 82 df 3d 62 33 17 bd 78 32 fd bc
       0.01576811 0.10913484 -0.036914237 -0.030907854
0000f0 08 a8 5c bc 02 06 77 bd 4d d1 c5 bc 79 1d c5 bd
       -0.013467796 -0.060308464 -0.024147654 -0.09624762
000100 80 3a b5 bc a8 94 a1 bd da a3 f0 bd bd 34 be bc
       -0.022122622 -0.07889682 -0.11750002 -0.023218507
000110 cd 01 1d 3e 39 d6 0a bd 5c 63 23 3d c6 3c 17 bd
       0.15332718 -0.033895705 0.03988968 -0.036923192
000120 00 43 23 3a aa 9e 13 bd 56 32 d2 3d b2 8f c5 bd
       0.00062279403 -0.036039986 0.10263507 -0.09646548
000130 5d 2f 8c bd 6e f2 6e 3d 26 47 f4 bd 05 86 e5 3d
       -0.06844971 0.058336668 -0.11927633 0.11207203
000140 e5 cf fa bb 24 4c c0 3d 7e 77 a7 bd 0b 78 ff bd
       -0.0076541775 0.09389523 -0.08177088 -0.12474068
000150 57 9d 01 be 0f da 1f be be e6 3d 3d 87 a5 b3 3d
       -0.12657677 -0.15610527 0.04636263 0.08771806
000160 02 54 e5 3d 8a 7b 8d 3d f1 4c ab bd d5 23 3e bc
       0.11197664 0.06908329 -0.08364285 -0.011605223
000170 ab bb 0c 3d eb db cd bd 5d 3c ed bd de fa da bd
       0.03435866 -0.10051712 -0.11583779 -0.1069238
000180 7e b5 eb bc 1e af 13 bc ca b3 0b be 94 a4 7f bc
       -0.028773066 -0.009013919 -0.13642803 -0.015603203
000190 d1 e2 90 3d 66 1f dd 3d 02 cc ab 3d be 63 92 bd
       0.07074512 0.107970044 0.08388521 -0.071479306
0001a0 f2 fa 07 3e a6 9b 86 bd 8a 3c 48 3d d8 3d b7 3d
       0.13279322 -0.06572656 0.04888586 0.08947343
0001b0 1e 1f 89 bd c9 80 73 bb df 38 ba 3d ed cf b3 3c
       -0.06695388 -0.003715562 0.090928786 0.021949733
0001c0 49 71 74 3d 69 98 00 3e c2 da 9d 3d d7 58 c3 bd
       0.05967835 0.1255814 0.0770774 -0.09538429
0001d0 74 e1 b1 bd 26 fb ed bd 70 b3 ac 3c d2 7d d5 bd
       -0.0868558 -0.116201684 0.021081656 -0.10424389
0001e0 da b2 a9 3d 00 72 0e bb e5 4f 82 bd 10 b1 ea 3d
       0.08286066 -0.002173543 -0.06362895 0.11459553
0001f0 e6 ce 13 bd 04 17 ce 3d 04 64 3c 3d 22 ca f0 3d
       -0.036085986 0.10062984 0.04599382 0.11757304
000200 f0 68 93 3d eb d3 00 3e 34 86 03 bd 3e 1c 73 bd
       0.071977496 0.1258084 -0.032110408 -0.059353106
000210 f2 1e aa 3d 40 66 35 3d b0 84 92 bc bc 3d a6 bd
       0.083066836 0.044286966 -0.017885536 -0.08117244
000220 bc 1c 90 bd 1f 64 01 3e 68 11 32 bc 3a fc 93 bd
       -0.07036731 0.1263585 -0.010868408 -0.07225843
000230 60 e0 9e 3c eb 98 ad bd c0 59 b9 bd da 43 a3 3d
       0.0193941 -0.084764324 -0.090503216 0.07971926
000240 50 61 21 3d 08 33 e6 3c 60 39 81 3d bc c6 0c 3d
       0.039399445 0.028100505 0.063097715 0.034369215
000250 e8 b0 22 3d 6d 14 ae bd 08 c3 9d 3c c6 1e 9c 3d
       0.039719492 -0.0849999 0.019258037 0.07623057
000260 7b 0c cf bd cc 26 e2 bd e6 ed cb 3d 2a fc eb bd
       -0.10109802 -0.11042556 0.09957485 -0.11522706
000270 92 1e ee 3d 48 66 f7 3d fe 3b ee 3d 80 7b a6 3a
       0.116269246 0.120800555 0.11632536 0.0012701601
000280 22 a9 03 be 6d 62 e6 bd 04 46 97 3d 66 4e 7b bd
       -0.12857488 -0.11249242 0.07386401 -0.061354063
000290 44 73 87 3d 60 dd 8c bc 0e cc f6 3d 70 51 8d bd
       0.06613782 -0.017195404 0.12050639 -0.069002986
0002a0 eb 29 d4 bd 34 0a 39 bd 3a bc 38 bd 28 a4 d1 3c
       -0.10359558 -0.045175746 -0.04510138 0.025590971
0002b0 b8 ea b4 3d f4 a3 38 3d bc 14 76 bd c0 f3 80 3b
       0.088338315 0.045078233 -0.060078368 0.0039353073
0002c0 9c 0c 55 3d 08 04 ea 3d cc 7a 2e bd 14 41 01 3d
       0.05201398 0.1142655 -0.042597577 0.031556204
0002d0 de d9 84 bd 14 9b 0c 3d c0 13 45 3c a4 15 16 bd
       -0.06486867 0.03432758 0.012028635 -0.03664173
0002e0 c0 e0 09 3b 3c f6 65 bd 6c d5 eb 3d 84 31 20 bd
       0.0021038502 -0.05614303 0.11515316 -0.03910972
0002f0 46 7b 5c bd 10 12 78 3c 88 f2 b7 bd 92 76 8f 3d
       -0.0538285 0.015141025 -0.08981806 0.07005037
000300 7a 3c d0 bd fc ab 81 bd ae 6b a0 3d bc 47 77 3d
       -0.10167785 -0.063316315 0.07833038 0.060371146
000310 00 30 80 b8 5c 0a 4e 3d 7c 44 cd 3d 80 e3 64 3d
       -6.112456e-05 0.05030285 0.10022828 0.055881023
000320 bc 95 ba bd 9c 9b 86 bd 98 15 0c 3d d0 65 a5 3d
       -0.09110591 -0.06572649 0.03420028 0.0807606
000330 86 34 83 3d ac ca 2f 3d 34 7f b1 3d 20 05 ab 3d
       0.064065024 0.042917892 0.0866684 0.08350587
000340 70 a0 e4 3d be c7 18 bd 4c cb f6 bc 86 41 ae 3d
       0.111634135 -0.037299864 -0.030126236 0.08508591
000350 a0 e0 fc bc 24 fd e4 3d 4e 4e 8b 3d b0 2b a9 bb
       -0.030868828 0.11181095 0.06802045 -0.0051626787
000360 d5 b4 c3 bd 7c c7 f1 bd 7e be 8a 3d d2 28 b3 3d
       -0.09555975 -0.11805627 0.06774615 0.0874802
000370 20 05 90 3b f3 c9 fd bd 30 be 7c bd 64 c3 28 3d
       0.004395142 -0.123920344 -0.061704814 0.041201964
000380 da 3e be bd 30 d8 3d bc b1 41 cb bd a0 6b bf 3b
       -0.09289332 -0.011587188 -0.09924639 0.0058416873
000390 16 1c 8e 3d 52 1f a9 3d 5c ea aa bd 6c dd c4 bd
       0.06938951 0.08257927 -0.08345482 -0.09612545
0003a0 0f 5e 8b bd 54 4c 8f 3d d0 b7 dd bd 33 70 00 3e
       -0.0680505 0.0699698 -0.10826075 0.125428
0003b0 76 23 fe bd 80 f1 72 3c 1e d8 dc 3d 26 c6 bc bd
       -0.124091074 0.014828086 0.107834086 -0.09217481
0003c0 3c 2b 0e 3d f0 11 0c 3d 4b 0a fd 3d c5 9b 87 3d
       0.0347092 0.034196794 0.12355479 0.066215076
0003d0 b2 f4 98 3d b0 b0 7f 3c f0 4c 40 be a5 47 a6 3d
       0.07468547 0.01560609 -0.1877935 0.08119134
0003e0 cc 51 65 bc 39 9b 47 bd 9c 80 81 bd 80 eb 9f 3d
       -0.013996553 -0.048732016 -0.063233584 0.0780859
0003f0 02 d4 dc 3d d4 d9 0a 3d ee 0e 83 bd f2 fc ee 3d
       0.10782625 0.033899143 -0.06399332 0.11669339

fc_1.bias f4 [310]
000000 a6 dc 7a bd 46 53 c3 3d aa af 1c bd f4 da ce bc
       -0.061245583 0.095373675 -0.038253464 -0.02525089
000010 76 1a da 3d ec c6 0d 3e 8a 53 03 be 26 29 92 3d
       0.10649578 0.13845414 -0.12824836 0.07136755
000020 f3 4e 84 3d 87 fc c3 3d 1e 9f 6e bd 5f 81 03 bd
       0.06460371 0.0956965 -0.058257215 -0.0321058
000030 63 4d b1 3c 2c fa f2 3b 3b d4 fc 3d 45 f7 8e 3d
       0.021643346 0.0074150767 0.12345167 0.06980757
000040 41 af 9e bd ed 1a b5 bd 82 f3 d4 bd d2 db f2 3d
       -0.07748271 -0.08843026 -0.10398008 0.11858334
000050 46 2d b8 bd 4d 1e 83 bd c4 ad 01 3e ff f8 d5 3d
       -0.0899301 -0.06402264 0.12663943 0.10447883
000060 c9 b4 6e 3d 69 92 8f 3d 39 e1 4c 3d c1 17 df bd
       0.05827788 0.070103474 0.050019477 -0.108932026
000070 60 09 03 be 6a 24 10 3d 19 7d a8 3d 40 1b 13 bd
       -0.12796545 0.035190977 0.082269855 -0.03591466
000080 1c c5 c2 3d 57 4f 45 3d 29 cf ae 3d 2d 43 40 3b
       0.09510252 0.048171367 0.085356064 0.0029336915
000090 b7 8b 81 3d 8b 4b 84 3d 79 7a 80 bd 0e 61 be bd
       0.063254766 0.06459721 -0.0627336 -0.092958555
0000a0 2e fc 96 3d c4 9c c8 3c 60 1d e2 bd d4 3b b1 bd
       0.07372318 0.024488814 -0.11040759 -0.086539894
0000b0 e0 74 49 bd 19 af 33 3b 24 d3 86 3d 23 50 90 bd
       -0.049183726 0.0027417599 0.06583241 -0.07046535
0000c0 5c 39 21 3d dd 70 15 bb e4 8f db bc 7d c8 ac 3d
       0.039361343 -0.0022802867 -0.02680201 0.084366776
0000d0 5b 50 aa 3d 4c fb 36 bd 75 da 81 3c ff 07 85 3d
       0.08316108 -0.04467325 0.015851239 0.06495666
0000e0 20 87 ac bd d8 53 c0 3c e6 98 b4 3d ec 1f 02 3e
       -0.084242105 0.02347748 0.088182256 0.1270749
0000f0 cf 41 a8 3c 35 19 e4 3d 73 ba 5c 3d 10 62 86 3c
       0.020539192 0.1113762 0.05388875 0.016404182
000100 f2 2b 59 bd 92 88 12 bd 0d b9 bb bd 5c 19 e9 3d
       -0.053020425 -0.035774775 -0.09166155 0.1138179
000110 e4 ea 03 be f3 69 ce 3c e1 14 7f 3d d0 b5 98 bd
       -0.12882572 0.025197005 0.06227577 -0.07456553
000120 84 d4 3c bd d6 36 ce bd a1 5a e7 3c e0 a5 e5 3d
       -0.04610111 -0.10069053 0.028241457 0.11213279
000130 d8 42 0e bd f6 8b d6 3c c0 75 4a bc 83 70 c6 3c
       -0.034731716 0.026189785 -0.012357175 0.024223572
000140 25 0f 52 3d 85 80 b0 3c 33 ab a1 3c 90 ad c4 3d
       0.051283974 0.021545658 0.019734954 0.09603417
000150 39 64 8a 3d 16 f8 8b 3c 1e 25 72 bd 6d 51 98 3d
       0.06757397 0.01708607 -0.05911743 0.07437406
000160 7b 00 ff 3d da 81 45 3d 59 64 91 3d 4d 48 49 3d
       0.124512635 0.04821954 0.07099218 0.049141217
000170 5d 88 af 3d 4e 8b e4 3b 24 50 17 bd 48 4d 5f bd
       0.08570931 0.006974614 -0.036941662 -0.05451706
000180 a6 20 97 bd 12 ca 11 3d 6a e8 c3 3d 52 55 14 3d
       -0.07379274 0.0355931 0.09565814 0.03621418
000190 b3 51 f3 bd db 34 b6 3d 2c 46 b7 3d ab 3a 0b 3c
       -0.11880817 0.088968 0.08948931 0.008497874
0001a0 5f 1f 32 3d 49 42 a1 3c ba 37 e8 bd 2e 8f a0 3d
       0.04348695 0.019684928 -0.11338754 0.07839809
0001b0 df 2b 81 3c 93 cd ec bd b8 39 30 3d 54 0c 96 bd
       0.01576799 -0.11562648 0.043023795 -0.0732657
0001c0 81 64 8c 3d a8 19 3c 3c 4f 7d e9 bd 74 8a ef bd
       0.06855107 0.011480726 -0.11400854 -0.1169633
0001d0 f9 b6 32 3c 4e 2d ad bd 28 d0 48 bd 7c af c0 bc
       0.010907882 -0.08455907 -0.04902664 -0.023521177
0001e0 b8 07 a8 bd 4a b5 d2 bd ba 7e d4 3d db 4f 6c 3b
       -0.08204597 -0.102884844 0.10375734 0.003605834
0001f0 2c 71 f2 3c ab 77 11 3c a7 18 f3 3c 2f 16 d3 3d
       0.02959498 0.008878629 0.029674841 0.103069656
000200 24 10 3e bd 4c a6 c3 bd 07 2d 34 3d b8 68 73 3d
       -0.04640211 -0.09553203 0.043988254 0.05942604
000210 9a 4d 90 3d 71 80 1b 3d 00 dc f8 bd 64 27 29 bd
       0.07046051 0.03796429 -0.12151337 -0.04129733
000220 86 2d 4b bd ee 67 02 be 30 17 7e bd 84 44 a2 bc
       -0.04960396 -0.12734959 -0.062033832 -0.019808061
000230 6f 05 da bd d4 ab 0d bd 67 89 07 3d 49 d9 89 bd
       -0.106455676 -0.034587696 0.03309002 -0.06730897
000240 73 10 3f 3d 50 90 4a bd 4d e2 d1 3d 35 a8 e0 3d
       0.046646547 -0.049454033 0.102482416 0.10969583
000250 28 0b b8 bd f0 ef 95 bd 38 6a e2 bd 16 ee 19 bd
       -0.08986503 -0.07321155 -0.11055416 -0.037580572
000260 d9 fb 65 3d f8 73 13 bd d4 4f 8f bd e5 3a 93 3d
       0.056148384 -0.03599927 -0.06997648 0.071889676
000270 73 6d ac 3d b8 b5 0f 3c 00 d6 22 bd fc 37 59 bd
       0.08419313 0.0087713525 -0.039754868 -0.053031906
000280 f4 4e 94 bc 01 8e e0 3c 97 33 ff bd 58 f6 1c bc
       -0.018104054 0.027411463 -0.12461012 -0.009580217
000290 a4 1b a4 3d a4 97 d7 3b 25 e0 bb 3d c5 c4 44 3d
       0.080130845 0.0065793563 0.091736116 0.048039217
0002a0 fe 57 02 be 6f 90 86 3d 96 09 8d bd 13 7d 0c 3e
       -0.12728879 0.06570517 -0.06886594 0.13719587
0002b0 a9 c0 02 3d 42 c5 8f bd 34 4d ec 3d 63 27 82 bd
       0.031922016 -0.07020046 0.11538163 -0.06355169
0002c0 57 d5 20 3d fe e3 e5 3d e9 68 e5 3d 05 6c 9e 3d
       0.039265957 0.11225127 0.11201651 0.07735447
0002d0 c4 f4 81 bc 9c 5a 1e bb 60 f2 57 bc 3b 75 00 3d
       -0.015863784 -0.0024162894 -0.013180345 0.0313618
0002e0 c1 21 b0 3d be 3f 5e bd a6 c9 0a bd 49 6b 44 3c
       0.08600188 -0.054260008 -0.033883713 0.011988469
0002f0 1c 9d d4 3d 0d 42 df bd 8c 4f 3d 3b 11 ae d4 3d
       0.10381529 -0.1090127 0.0028886525 0.10384763
000300 ab 43 39 3c 13 0e f7 bd 93 00 03 3e 33 db 57 3d
       0.011307637 -0.12063231 0.12793188 0.05269928
000310 4c 4e f8 bd 1b 0b c3 bd 28 c6 10 bd 47 fa f5 3d
       -0.12124309 -0.095236026 -0.035345227 0.12010627
000320 24 d5 f4 bd 8a 89 e9 3c bc cd 04 3e 47 3c ab 3d
       -0.11954716 0.028507967 0.12969106 0.08361106
000330 7c 7f 33 3c 87 fa ea 3d 0c 0a 08 bd 84 a8 db bd
       0.010955688 0.114735655 -0.033212706 -0.10725501
000340 12 42 23 3d 6c d4 95 bd dd 23 a1 bd 2f f6 bd 3c
       0.03985793 -0.07315907 -0.078681685 0.023188679
000350 04 57 db 3d 80 ba 5b bd 0c 09 e7 3d 6e db f1 3d
       0.10709956 -0.053644657 0.112810224 0.11809431
000360 5a 61 91 bb 40 0c 9c 3b bc 71 df bd 1a 53 d0 bd
       -0.004436654 0.0047622025 -0.10910365 -0.101721
000370 56 f1 95 3d 8c c0 de 3d 7e d8 f2 bd d4 bf 48 3d
       0.07321422 0.10876569 -0.11857699 0.049011067
000380 76 d9 e1 bd f6 7e c5 3d 5f 41 cd bd 54 78 8b bc
       -0.110278055 0.096433565 -0.10022234 -0.01702515
000390 b8 07 00 be f8 99 d1 3d 30 63 09 3d 1b e9 00 bc
       -0.12502944 0.10234445 0.03354186 -0.007868077
0003a0 c6 b7 3d bd 84 48 ab bd 0e a2 9e bd b0 be e7 bc
       -0.046317838 -0.08363441 -0.07745753 -0.02828917
0003b0 63 42 c9 bd d9 22 36 bc 58 fa 2c bc 00 9a 04 3e
       -0.098271154 -0.011116707 -0.0105577335 0.12949371
0003c0 4d e2 d6 3c f0 1f 87 bb 32 2c 52 3b 1e 8f 05 bd
       0.026230955 -0.0041236803 0.00320698 -0.03260719
0003d0 fc 90 a2 3c b3 01 e2 3c 4a 0b ad bc e6 cd f6 bd
       0.019844525 0.0275887 -0.021123547 -0.12050991
0003e0 bc 71 84 bd 1c 0a f4 bd 3b ab a8 3d 97 37 ae bd
       -0.064670056 -0.11915991 0.082357846 -0.08506697
0003f0 7f ae b7 bd e0 03 5b bd d9 d5 b9 3c b5 bf aa bd
       -0.08968829 -0.053470492 0.022684978 -0.083373465

fc.weight f4 [1, 310]
000000 84 a4 00 3c ce f8 47 3a 1b ea f3 bc 90 b5 1d 3b
       0.007851724 0.00076283223 -0.029774716 0.0024064519
000010 73 2d 87 3d 98 74 54 3d 87 c6 17 3d 96 40 49 3c
       0.066004656 0.051869005 0.037054565 0.012283465
000020 e6 73 ed 3c b7 e4 65 3d f0 11 48 bc b9 c4 65 3d
       0.028985929 0.056126323 -0.012211308 0.056095812
000030 13 23 e0 3c 44 5a ea bd 91 07 8a 3c b9 92 3c 3a
       0.027360475 -0.11442998 0.016849311 0.0007193494
000040 91 99 40 3d 8a 85 fa bc 36 64 83 3c ff 38 32 bd
       0.047021452 -0.030581255 0.016038995 -0.043511387
000050 7f 91 2f 3d bd 35 3a bd a8 a4 b1 3c 20 a5 00 bc
       0.042863365 -0.045461405 0.02168496 -0.007851869
000060 53 62 58 bd 18 8a 12 bd 38 44 ec bc 96 ee 5a bd
       -0.052828144 -0.035776228 -0.028841123 -0.05345019
000070 79 6e f6 bc 12 d1 68 bd 94 11 f5 3c 67 1a 5e bd
       -0.030081974 -0.05684001 0.029915608 -0.054224398
000080 26 db 25 bd 6f 01 c2 bc 4b b9 68 3d 76 7f e9 3d
       -0.0404922 -0.023682324 0.056817334 0.11401264
000090 c1 45 1f bd de df 94 bc 00 91 4b bb 83 f2 39 bd
       -0.038884882 -0.018173154 -0.0031061769 -0.045397293
0000a0 7a 39 05 bc 9d 6b bb 3d 00 1e 25 3a fd c3 38 3d
       -0.008131379 0.09151385 0.0006298721 0.045108784
0000b0 56 ad f1 3c a9 73 08 3e 31 ac 38 bc 26 15 a1 bc
       0.029501598 0.13325371 -0.011271522 -0.019663405
0000c0 98 49 0d 3d 2a 95 25 bd 3f 5a 05 bd 87 24 8c 3c
       0.034494013 -0.040425457 -0.03255677 0.017107261
0000d0 4a 16 2f 3d bb b5 1a 3d d4 ec bf 3d fb 40 5f 3d
       0.042745866 0.037770968 0.09371343 0.05450533
0000e0 08 8e 49 bc f5 d4 45 3d 9d c1 5a 3d ba 1f 88 3d
       -0.012301929 0.048298795 0.0534073 0.06646676
0000f0 f6 50 9b 3d fa 7c ab 3c 4e 06 f4 bd f1 f4 1e 3d
       0.075838014 0.020933617 -0.11915265 0.038807813
000100 e2 ea ba bc 2e 3a d6 bc 8c b1 b0 bc 67 d6 01 3d
       -0.022817079 -0.02615079 -0.021569036 0.03169861
000110 48 9c 1f bd f0 6c e1 bd 26 af fe 3c 44 77 73 3c
       -0.0389674 -0.11007106 0.031089377 0.014859978
000120 44 c6 59 bd e1 e4 55 bd f7 9a b0 bd 13 d6 ef bc
       -0.053167596 -0.05222023 -0.08623307 -0.029276883
000130 c6 a6 f6 bc d1 22 e8 3c fc b8 66 bd d4 ae f0 bd
       -0.03010882 0.028336914 -0.05632876 -0.11752096
000140 c9 05 c2 3c 0d 66 a3 3d d9 d1 52 bd 6b 9f 86 bc
       0.0236844 0.07978449 -0.051469658 -0.016433438
000150 b0 d0 3b 3d 10 b5 d0 3d 35 2c 0b 3d a1 36 85 3d
       0.045853317 0.10190785 0.033977706 0.0650456
000160 e5 07 26 3d 78 75 91 3c e7 89 4a bd 7f 1b 54 bc
       0.040534873 0.017756209 -0.04944792 -0.012946009
000170 83 75 67 bc 40 ad e9 3d f2 26 a3 bc 37 9e 51 3d
       -0.014127138 0.11409998 -0.019916032 0.051176276
000180 eb 31 56 3d 33 c1 03 be 73 5d 17 3b 64 1a 4d bc
       0.0522937 -0.12866668 0.0023096472 -0.012518499
000190 49 bb 15 3d af 2d 61 3d 12 07 5c 3d 6c ce 24 bd
       0.036555562 0.054975208 0.05371768 -0.04023592
0001a0 8c 2b 8e 3d f7 ba 87 3d 63 09 61 3d 41 d7 a5 bc
       0.069419 0.066274576 0.054940592 -0.020244243
0001b0 6e 29 56 3d 1f 8a 0f bd 10 68 6d 3c d0 0c 0f bc
       0.052285604 -0.035043832 0.014490142 -0.008731082
0001c0 33 ab 8a bc 3c 0e 80 bc 6a 1e 31 bd 8c d8 43 bc
       -0.016927337 -0.015631787 -0.043241896 -0.011953484
0001d0 fe ae 4f bc 8c 12 22 bd 00 aa ee 39 24 56 01 3c
       -0.012675999 -0.03956847 0.00045521557 0.007894073
0001e0 b0 33 4f bc 88 01 be bc e9 41 14 bc 72 aa e8 bd
       -0.012646601 -0.02319409 -0.009048917 -0.11360635
0001f0 65 09 c8 bd 81 f3 7e 3d b8 7c 54 bd 55 77 38 bd
       -0.09767417 0.062243942 -0.051876754 -0.04503568
000200 e4 be 6b bc cc 5b 0b 3c ae 49 25 3d c7 7f a7 3c
       -0.014388774 0.008505773 0.04035347 0.020446671
000210 4e 55 1d 3d 54 43 4b b8 96 58 a1 bc 06 4d 28 bc
       0.03841143 -4.8461676e-05 -0.019695561 -0.01027227
000220 c6 fc 2c bd 19 4d 1e bd 50 01 e4 bb 80 ee 4c bd
       -0.04223325 -0.038647745 -0.0069581643 -0.05003214
000230 08 01 b1 3b 7c 23 71 bc d8 74 8a 3d a1 ce 3a 3d
       0.0054017343 -0.014717933 0.067605674 0.045607213
000240 9b cf fd 3c 56 54 0f bd 04 77 17 3c 73 39 4b 3d
       0.030982783 -0.03499254 0.009244684 0.049615335
000250 60 98 b5 ba 6b 9b 4a bd b2 9b e0 3c 50 cb 23 bd
       -0.0013854615 -0.049464624 0.027417991 -0.039988816
000260 b6 86 29 3d 0b 35 0b 3d fb bb 49 bd 29 60 0c bc
       0.041388236 0.033986133 -0.049251538 -0.008567848
000270 b7 26 4b bd 56 36 19 3e ec 62 b5 bc d2 f0 e8 3c
       -0.04959747 0.14962134 -0.022141896 0.028435145
000280 06 ba cc bc 26 27 7f 3d 69 ad 1a 3d f4 6e 4a 3c
       -0.024991047 0.062293194 0.037763033 0.012355555
000290 d2 23 63 3d 4a 71 82 3d 22 05 7e 3d 6d 3e 30 bd
       0.055454083 0.063692644 0.062016614 -0.043028284
0002a0 b0 a0 3d bc 11 7b 3f 3d e6 5b df 3c 47 b3 15 3d
       -0.011573955 0.046748225 0.0272655 0.036547925
0002b0 22 f6 ce 3c e0 9e 79 3b a4 d2 e6 bc ff 03 02 bd
       0.02526385 0.0038089082 -0.028176613 -0.031742092
0002c0 b8 1b 62 3d ea b0 88 3b 56 89 86 bb 85 4b 65 bd
       0.055202216 0.0041714804 -0.004105727 -0.055980224
0002d0 c2 a9 36 bd a1 78 be bb a4 49 02 bc 23 5a 07 be
       -0.044595487 -0.00581272 -0.007952128 -0.13217978
0002e0 69 30 34 3d e8 93 76 bc 53 25 11 3d 0f 72 be 3d
       0.04399148 -0.015049912 0.035435986 0.09299099
0002f0 2a db 4c 3d 0e e3 a0 bc 0f dc d9 bd 92 27 59 3c
       0.0500137 -0.019639518 -0.10637676 0.013254063
000300 7f d0 13 3e 28 b2 88 bc 7a 5f 6c 3d 8f 93 8b 3d
       0.14435004 -0.016686514 0.05770824 0.06815254
000310 f8 91 a5 bc 78 60 25 bd a6 0e e9 3c 66 40 77 3d
       -0.020211205 -0.040375203 0.028449368 0.06036415
000320 6c 27 95 bc df d5 dd bd c9 a4 a5 3c 62 16 1d 3b
       -0.018207274 -0.10831808 0.020220177 0.002396964
000330 3f 2a fd bd 47 07 e7 3c a8 bc 30 bd 0b 0f 42 3d
       -0.123615734 0.028201712 -0.043148667 0.047377627
000340 41 71 fb bc 0c 1b 46 bc 4e 45 24 bd be 83 d8 3d
       -0.030693652 -0.012091409 -0.040105157 0.10572003
000350 94 d9 9c 3c 0f e5 54 3d 13 f6 55 3d fc 2b 43 bd
       0.019146718 0.05197626 0.052236628 -0.04764937
000360 4b 43 8c bc 65 1c 4c 3d 58 78 8c bc e1 8e 33 3d
       -0.017121932 0.049831767 -0.017147228 0.04383743
000370 65 fe f3 3c 40 b0 3d bd 91 78 50 bd af 29 ea bd
       0.02978439 -0.046310663 -0.05089623 -0.11433732
000380 a4 8b 3f bc 07 c6 57 bd eb 25 f0 bc c7 6c 3e 3d
       -0.011691008 -0.052679088 -0.029314956 0.046490457
000390 04 c9 64 3c ad dd 0c 3d 3d 99 17 3d 05 08 ba 3c
       0.0139639415 0.034391094 0.037011374 0.022708902
0003a0 5f d9 21 3d 80 61 f8 39 9d db 1f 3d 8c cd c0 bc
       0.03951394 0.0004737489 0.0390278 -0.023535512
0003b0 88 60 d1 bc c3 08 29 3d 31 6d 67 bd fb 72 56 3d
       -0.025558725 0.04126812 -0.056500617 0.052355748
0003c0 31 77 b4 bc 24 ac 61 3c f8 3c d0 3d c8 7d eb bc
       -0.022029491 0.013773952 0.10167879 -0.0287465
0003d0 f0 38 98 3d bf 4d 82 bd 8b 43 f2 bb 6c b7 1c 3c
       0.07432735 -0.06362485 -0.0073933057 0.009565216
0003e0 16 09 9f 3c a7 24 39 3d 14 8d 17 bd 10 95 3a bd
       0.019413512 0.04520097 -0.036999777 -0.045552313
0003f0 80 10 25 bb 1e df 00 bd d1 9a 0f 3d 92 99 ca 3c
       -0.0025186837 -0.03146278 0.035059754 0.024731431
